cuda
----------------------------------------------------------------------------------------------------
      Layer (type)                                     Output Shape         Param #     Tr. Param #
====================================================================================================
       Embedding-1                                    [32, 64, 300]       1,441,500       1,441,500
         Dropout-2                                    [32, 64, 300]               0               0
            LSTM-3     [32, 64, 1000], [1, 32, 1000], [1, 32, 1000]       5,208,000       5,208,000
         Dropout-4                                    [32, 1, 1000]               0               0
          Linear-5                                      [32, 1, 27]          27,027          27,027
====================================================================================================
Total params: 6,676,527
Trainable params: 6,676,527
Non-trainable params: 0
----------------------------------------------------------------------------------------------------
Epoch: 1  | time in 4 minutes, 0 seconds
	Loss: 0.0713(train)	|	Acc: 42.7%(train)
	Loss: 0.0711(valid)	|	Acc: 42.7%(valid)
…
train.sh: line 5:  7158 Killed                  CUDA_VISIBLE_DEVICES=3 python main.py --lr 0.00003 --batch_size 32 --epoch 100 --seed 1992 --embedding_dim 300 --embedding_droprate 0.5 --sequence_len 64 --rnn_droprate 0.5 --train ../data/train.txt --dev ../data/dev.txt --test ../data/test.txt --mode train --output_vocab_label ./model/class.txt --output_vocab_word ./model/vocab.txt --rnn_cell_hidden 1000 --rnn_cell_type LSTM --birnn True --num_layers 1
cuda
--------------------------------------------------------------------------------------------------
      Layer (type)                                   Output Shape         Param #     Tr. Param #
==================================================================================================
       Embedding-1                                  [32, 64, 300]       1,441,500       1,441,500
         Dropout-2                                  [32, 64, 300]               0               0
            LSTM-3     [32, 64, 1000], [2, 32, 500], [2, 32, 500]       3,208,000       3,208,000
         Dropout-4                                  [32, 1, 1000]               0               0
          Linear-5                                    [32, 1, 27]          27,027          27,027
==================================================================================================
Total params: 4,676,527
Trainable params: 4,676,527
Non-trainable params: 0
--------------------------------------------------------------------------------------------------
Epoch: 1  | time in 5 minutes, 56 seconds
	Loss: 0.0224(train)	|	Acc: 80.3%(train)
	Loss: 0.0128(valid)	|	Acc: 88.1%(valid)
…
WARNING:tensorflow:Found more than one graph event per run, or there was a metagraph containing a graph_def, as well as one or more graph events.  Overwriting the graph with the newest event.
WARNING:tensorflow:Found more than one "run metadata" event with tag step1. Overwriting it with the newest event.
cuda
-------------------------------------------------------------------------------------
      Layer (type)                      Output Shape         Param #     Tr. Param #
=====================================================================================
       Embedding-1                     [32, 64, 300]       1,441,500       1,441,500
         Dropout-2                     [32, 64, 300]               0               0
             GRU-3     [32, 64, 1000], [1, 32, 1000]       3,906,000       3,906,000
         Dropout-4                     [32, 1, 1000]               0               0
          Linear-5                       [32, 1, 27]          27,027          27,027
=====================================================================================
Total params: 5,374,527
Trainable params: 5,374,527
Non-trainable params: 0
-------------------------------------------------------------------------------------
Epoch: 1  | time in 3 minutes, 30 seconds
	Loss: 0.0564(train)	|	Acc: 51.8%(train)
	Loss: 0.0432(valid)	|	Acc: 60.9%(valid)
Epoch: 2  | time in 3 minutes, 27 seconds
…
WARNING:tensorflow:Found more than one "run metadata" event with tag step1. Overwriting it with the newest event.
WARNING:tensorflow:Deleting accumulator 'Acc_train'
WARNING:tensorflow:Deleting accumulator 'Loss_valid'
WARNING:tensorflow:Deleting accumulator 'Loss_train'
WARNING:tensorflow:Deleting accumulator 'Acc_valid'
cuda
-----------------------------------------------------------------------------------
      Layer (type)                    Output Shape         Param #     Tr. Param #
===================================================================================
       Embedding-1                   [32, 64, 300]       1,441,500       1,441,500
         Dropout-2                   [32, 64, 300]               0               0
             GRU-3     [32, 64, 600], [4, 32, 300]       2,707,200       2,707,200
         Dropout-4                    [32, 1, 600]               0               0
          Linear-5                     [32, 1, 27]          16,227          16,227
===================================================================================
Total params: 4,164,927
Trainable params: 4,164,927
Non-trainable params: 0
-----------------------------------------------------------------------------------
Epoch: 1  | time in 2 minutes, 58 seconds
	Loss: 0.0241(train)	|	Acc: 78.8%(train)
	Loss: 0.0134(valid)	|	Acc: 87.9%(valid)
Epoch: 2  | time in 2 minutes, 58 seconds
…
